…
          , line 24, in &lt;module&gt;\n    test = pipeline(model=model, tokenizer=tokenizer)\n\
          \  File \"/home/eve/Documents/llm-agent-poc/.venv/lib/python3.10/site-packages/transformers/pipelines/__init__.py\"\
          , line 801, in pipeline\n    raise RuntimeError(\nRuntimeError: Inferring\
          \ the task automatically requires to check the hub with a model_id defined\
          \ as a `str`. LlamaForCausalLM(\n  (model): LlamaModel(\n    (embed_tokens):\
          \ Embedding(32000, 4096)\n    (layers): ModuleList(\n      (0-31): 32 x\
          \ LlamaDecoderLayer(\n        (self_attn): LlamaSdpaAttention(\n       \
          \   (q_proj): Linear(in_features=4096, out_features=4096, bias=False)\n\
          \          (k_proj): Linear(in_features=4096, out_features=4096, bias=False)\n\
          \          (v_proj): Linear(in_features=4096, out_features=4096, bias=False)\n\
          \          (o_proj): Linear(in_features=4096, out_features=4096, bias=False)\n\
          \          (rotary_emb): LlamaRotaryEmbedding()\n        )\n        (mlp):\
          \ LlamaMLP(\n          (gate_proj): Linear(in_features=4096, out_features=11008,\
          \ bias=False)\n          (up_proj): Linear(in_features=4096, out_features=11008,\
          \ bias=False)\n          (down_proj): Linear(in_features=11008, out_features=4096,\
          \ bias=False)\n          (act_fn): SiLU()\n        )\n        (input_layernorm):\
          \ LlamaRMSNorm()\n        (post_attention_layernorm): LlamaRMSNorm()\n \
          \     )\n    )\n    (norm): LlamaRMSNorm()\n  )\n  (lm_head): Linear(in_features=4096,\
          \ out_features=32000, bias=False)\n) is not a valid model_id.\n</code></pre>\n\
          <p>I Googled the error and found a thread of someone reporting a similar\
          \ problem with another model. The way to solve the error, they said, was\
          \ to add a parameter to the pipeline:</p>\n<pre><code>test = pipeline(task='text-generation',model=model,\
          \ tokenizer=tokenizer)\n</code></pre>\n<p>In my case it didn't solve the\
…
          , line 24, in <module>\r\n    test = pipeline(model=model, tokenizer=tokenizer)\r\
          \n  File \"/home/eve/Documents/llm-agent-poc/.venv/lib/python3.10/site-packages/transformers/pipelines/__init__.py\"\
          , line 801, in pipeline\r\n    raise RuntimeError(\r\nRuntimeError: Inferring\
          \ the task automatically requires to check the hub with a model_id defined\
          \ as a `str`. LlamaForCausalLM(\r\n  (model): LlamaModel(\r\n    (embed_tokens):\
          \ Embedding(32000, 4096)\r\n    (layers): ModuleList(\r\n      (0-31): 32\
          \ x LlamaDecoderLayer(\r\n        (self_attn): LlamaSdpaAttention(\r\n \
          \         (q_proj): Linear(in_features=4096, out_features=4096, bias=False)\r\
          \n          (k_proj): Linear(in_features=4096, out_features=4096, bias=False)\r\
          \n          (v_proj): Linear(in_features=4096, out_features=4096, bias=False)\r\
          \n          (o_proj): Linear(in_features=4096, out_features=4096, bias=False)\r\
          \n          (rotary_emb): LlamaRotaryEmbedding()\r\n        )\r\n      \
          \  (mlp): LlamaMLP(\r\n          (gate_proj): Linear(in_features=4096, out_features=11008,\
          \ bias=False)\r\n          (up_proj): Linear(in_features=4096, out_features=11008,\
          \ bias=False)\r\n          (down_proj): Linear(in_features=11008, out_features=4096,\
          \ bias=False)\r\n          (act_fn): SiLU()\r\n        )\r\n        (input_layernorm):\
          \ LlamaRMSNorm()\r\n        (post_attention_layernorm): LlamaRMSNorm()\r\
          \n      )\r\n    )\r\n    (norm): LlamaRMSNorm()\r\n  )\r\n  (lm_head):\
          \ Linear(in_features=4096, out_features=32000, bias=False)\r\n) is not a\
          \ valid model_id.\r\n```\r\nI Googled the error and found a thread of someone\
…
    , line 24, in <module>\r\n    test = pipeline(model=model, tokenizer=tokenizer)\r\
    \n  File \"/home/eve/Documents/llm-agent-poc/.venv/lib/python3.10/site-packages/transformers/pipelines/__init__.py\"\
    , line 801, in pipeline\r\n    raise RuntimeError(\r\nRuntimeError: Inferring\
    \ the task automatically requires to check the hub with a model_id defined as\
    \ a `str`. LlamaForCausalLM(\r\n  (model): LlamaModel(\r\n    (embed_tokens):\
    \ Embedding(32000, 4096)\r\n    (layers): ModuleList(\r\n      (0-31): 32 x LlamaDecoderLayer(\r\
    \n        (self_attn): LlamaSdpaAttention(\r\n          (q_proj): Linear(in_features=4096,\
    \ out_features=4096, bias=False)\r\n          (k_proj): Linear(in_features=4096,\
    \ out_features=4096, bias=False)\r\n          (v_proj): Linear(in_features=4096,\
    \ out_features=4096, bias=False)\r\n          (o_proj): Linear(in_features=4096,\
    \ out_features=4096, bias=False)\r\n          (rotary_emb): LlamaRotaryEmbedding()\r\
    \n        )\r\n        (mlp): LlamaMLP(\r\n          (gate_proj): Linear(in_features=4096,\
    \ out_features=11008, bias=False)\r\n          (up_proj): Linear(in_features=4096,\
    \ out_features=11008, bias=False)\r\n          (down_proj): Linear(in_features=11008,\
    \ out_features=4096, bias=False)\r\n          (act_fn): SiLU()\r\n        )\r\n\
    \        (input_layernorm): LlamaRMSNorm()\r\n        (post_attention_layernorm):\
    \ LlamaRMSNorm()\r\n      )\r\n    )\r\n    (norm): LlamaRMSNorm()\r\n  )\r\n\
    \  (lm_head): Linear(in_features=4096, out_features=32000, bias=False)\r\n) is\
    \ not a valid model_id.\r\n```\r\nI Googled the error and found a thread of someone\
    \ reporting a similar problem with another model. The way to solve the error,\
    \ they said, was to add a parameter to the pipeline:\r\n```\r\ntest = pipeline(task='text-generation',model=model,\
    \ tokenizer=tokenizer)\r\n```\r\n\r\nIn my case it didn't solve the error, but\
…
