…
          , line 6, in <module>\r\n    generator = pipeline(model=model, tokenizer=tokenizer)\r\
          \n  File \"/backup/Vidya/llama/lib/python3.9/site-packages/transformers/pipelines/__init__.py\"\
          , line 712, in pipeline\r\n    raise RuntimeError(\r\nRuntimeError: Inferring\
          \ the task automatically requires to check the hub with a model_id defined\
          \ as a `str`.GPTNeoXForCausalLM(\r\n  (gpt_neox): GPTNeoXModel(\r\n    (embed_in):\
          \ Embedding(50280, 5120)\r\n    (layers): ModuleList(\r\n      (0-35): 36\
          \ x GPTNeoXLayer(\r\n        (input_layernorm): LayerNorm((5120,), eps=1e-05,\
          \ elementwise_affine=True)\r\n        (post_attention_layernorm): LayerNorm((5120,),\
          \ eps=1e-05, elementwise_affine=True)\r\n        (attention): GPTNeoXAttention(\r\
          \n          (rotary_emb): RotaryEmbedding()\r\n          (query_key_value):\
          \ Linear(in_features=5120, out_features=15360, bias=True)\r\n          (dense):\
          \ Linear(in_features=5120, out_features=5120, bias=True)\r\n        )\r\n\
          \        (mlp): GPTNeoXMLP(\r\n          (dense_h_to_4h): Linear(in_features=5120,\
          \ out_features=20480, bias=True)\r\n          (dense_4h_to_h): Linear(in_features=20480,\
          \ out_features=5120, bias=True)\r\n          (act): GELUActivation()\r\n\
          \        )\r\n      )\r\n    )\r\n    (final_layer_norm): LayerNorm((5120,),\
          \ eps=1e-05, elementwise_affine=True)\r\n  )\r\n  (embed_out): Linear(in_features=5120,\
          \ out_features=50280, bias=False)\r\n) is not a valid model_id.\r\n\r\n\r\
          \n\r\ncode:- \r\nfrom transformers import AutoTokenizer, AutoModelForCausalLM,\
          \ pipeline\r\n\r\ntokenizer = AutoTokenizer.from_pretrained(\"/backup/Vidya/dolly-v2-12b\"\
          )\r\n\r\nmodel = AutoModelForCausalLM.from_pretrained(\"/backup/Vidya/dolly-v2-12b\"\
          )\r\ngenerator = pipeline(model=model, tokenizer=tokenizer)\r\nprint(generator(\"\
…
  content: "Traceback (most recent call last):\r\n  File \"/backup/Vidya/test1.py\"\
    , line 6, in <module>\r\n    generator = pipeline(model=model, tokenizer=tokenizer)\r\
    \n  File \"/backup/Vidya/llama/lib/python3.9/site-packages/transformers/pipelines/__init__.py\"\
    , line 712, in pipeline\r\n    raise RuntimeError(\r\nRuntimeError: Inferring\
    \ the task automatically requires to check the hub with a model_id defined as\
    \ a `str`.GPTNeoXForCausalLM(\r\n  (gpt_neox): GPTNeoXModel(\r\n    (embed_in):\
    \ Embedding(50280, 5120)\r\n    (layers): ModuleList(\r\n      (0-35): 36 x GPTNeoXLayer(\r\
    \n        (input_layernorm): LayerNorm((5120,), eps=1e-05, elementwise_affine=True)\r\
    \n        (post_attention_layernorm): LayerNorm((5120,), eps=1e-05, elementwise_affine=True)\r\
    \n        (attention): GPTNeoXAttention(\r\n          (rotary_emb): RotaryEmbedding()\r\
    \n          (query_key_value): Linear(in_features=5120, out_features=15360, bias=True)\r\
    \n          (dense): Linear(in_features=5120, out_features=5120, bias=True)\r\n\
    \        )\r\n        (mlp): GPTNeoXMLP(\r\n          (dense_h_to_4h): Linear(in_features=5120,\
    \ out_features=20480, bias=True)\r\n          (dense_4h_to_h): Linear(in_features=20480,\
    \ out_features=5120, bias=True)\r\n          (act): GELUActivation()\r\n     \
    \   )\r\n      )\r\n    )\r\n    (final_layer_norm): LayerNorm((5120,), eps=1e-05,\
    \ elementwise_affine=True)\r\n  )\r\n  (embed_out): Linear(in_features=5120, out_features=50280,\
    \ bias=False)\r\n) is not a valid model_id.\r\n\r\n\r\n\r\ncode:- \r\nfrom transformers\
    \ import AutoTokenizer, AutoModelForCausalLM, pipeline\r\n\r\ntokenizer = AutoTokenizer.from_pretrained(\"\
    /backup/Vidya/dolly-v2-12b\")\r\n\r\nmodel = AutoModelForCausalLM.from_pretrained(\"\
    /backup/Vidya/dolly-v2-12b\")\r\ngenerator = pipeline(model=model, tokenizer=tokenizer)\r\
…
