…
          \ now!</p>\n<p><a rel=\"nofollow\" href=\"https://cdn-uploads.huggingface.co/production/uploads/61b253b7ac5ecaae3d1efe0c/LW-KDY2CTeWTJFdGx1njq.png\"\
          ><img alt=\"image.png\" src=\"https://cdn-uploads.huggingface.co/production/uploads/61b253b7ac5ecaae3d1efe0c/LW-KDY2CTeWTJFdGx1njq.png\"\
          ></a></p>\n<p>However, actually looking at the model in pytorch shows 2\
          \ layers:</p>\n<pre><code class=\"language-py\">BlenderbotModel(\n  (shared):\
          \ Embedding(<span class=\"hljs-number\">8008</span>, <span class=\"hljs-number\"\
          >1280</span>, padding_idx=<span class=\"hljs-number\">0</span>)\n  (encoder):\
          \ BlenderbotEncoder(\n    (embed_tokens): Embedding(<span class=\"hljs-number\"\
          >8008</span>, <span class=\"hljs-number\">1280</span>, padding_idx=<span\
          \ class=\"hljs-number\">0</span>)\n    (embed_positions): BlenderbotLearnedPositionalEmbedding(<span\
          \ class=\"hljs-number\">128</span>, <span class=\"hljs-number\">1280</span>)\n\
          \    (layers): ModuleList(\n      (<span class=\"hljs-number\">0</span>-<span\
          \ class=\"hljs-number\">1</span>): <span class=\"hljs-number\">2</span>\
          \ x BlenderbotEncoderLayer(\n        (self_attn): BlenderbotAttention(\n\
          \          (k_proj): Linear(in_features=<span class=\"hljs-number\">1280</span>,\
          \ out_features=<span class=\"hljs-number\">1280</span>, bias=<span class=\"\
          hljs-literal\">True</span>)\n          (v_proj): Linear(in_features=<span\
          \ class=\"hljs-number\">1280</span>, out_features=<span class=\"hljs-number\"\
          >1280</span>, bias=<span class=\"hljs-literal\">True</span>)\n         \
          \ (q_proj): Linear(in_features=<span class=\"hljs-number\">1280</span>,\
          \ out_features=<span class=\"hljs-number\">1280</span>, bias=<span class=\"\
          hljs-literal\">True</span>)\n          (out_proj): Linear(in_features=<span\
          \ class=\"hljs-number\">1280</span>, out_features=<span class=\"hljs-number\"\
          >1280</span>, bias=<span class=\"hljs-literal\">True</span>)\n        )\n\
          \        (self_attn_layer_norm): LayerNorm((<span class=\"hljs-number\"\
          >1280</span>,), eps=<span class=\"hljs-number\">1e-05</span>, elementwise_affine=<span\
          \ class=\"hljs-literal\">True</span>)\n        (activation_fn): GELUActivation()\n\
          \        (fc1): Linear(in_features=<span class=\"hljs-number\">1280</span>,\
          \ out_features=<span class=\"hljs-number\">5120</span>, bias=<span class=\"\
          hljs-literal\">True</span>)\n        (fc2): Linear(in_features=<span class=\"\
          hljs-number\">5120</span>, out_features=<span class=\"hljs-number\">1280</span>,\
          \ bias=<span class=\"hljs-literal\">True</span>)\n        (final_layer_norm):\
          \ LayerNorm((<span class=\"hljs-number\">1280</span>,), eps=<span class=\"\
          hljs-number\">1e-05</span>, elementwise_affine=<span class=\"hljs-literal\"\
          >True</span>)\n      )\n    )\n    (layer_norm): LayerNorm((<span class=\"\
          hljs-number\">1280</span>,), eps=<span class=\"hljs-number\">1e-05</span>,\
          \ elementwise_affine=<span class=\"hljs-literal\">True</span>)\n  )\n  (decoder):\
          \ BlenderbotDecoder(\n    (embed_tokens): Embedding(<span class=\"hljs-number\"\
          >8008</span>, <span class=\"hljs-number\">1280</span>, padding_idx=<span\
          \ class=\"hljs-number\">0</span>)\n    (embed_positions): BlenderbotLearnedPositionalEmbedding(<span\
          \ class=\"hljs-number\">128</span>, <span class=\"hljs-number\">1280</span>)\n\
          \    (layers): ModuleList(\n      (<span class=\"hljs-number\">0</span>-<span\
          \ class=\"hljs-number\">11</span>): <span class=\"hljs-number\">12</span>\
          \ x BlenderbotDecoderLayer(\n        (self_attn): BlenderbotAttention(\n\
          \          (k_proj): Linear(in_features=<span class=\"hljs-number\">1280</span>,\
          \ out_features=<span class=\"hljs-number\">1280</span>, bias=<span class=\"\
          hljs-literal\">True</span>)\n          (v_proj): Linear(in_features=<span\
          \ class=\"hljs-number\">1280</span>, out_features=<span class=\"hljs-number\"\
          >1280</span>, bias=<span class=\"hljs-literal\">True</span>)\n         \
          \ (q_proj): Linear(in_features=<span class=\"hljs-number\">1280</span>,\
          \ out_features=<span class=\"hljs-number\">1280</span>, bias=<span class=\"\
          hljs-literal\">True</span>)\n          (out_proj): Linear(in_features=<span\
          \ class=\"hljs-number\">1280</span>, out_features=<span class=\"hljs-number\"\
          >1280</span>, bias=<span class=\"hljs-literal\">True</span>)\n        )\n\
          \        (activation_fn): GELUActivation()\n        (self_attn_layer_norm):\
          \ LayerNorm((<span class=\"hljs-number\">1280</span>,), eps=<span class=\"\
          hljs-number\">1e-05</span>, elementwise_affine=<span class=\"hljs-literal\"\
          >True</span>)\n        (encoder_attn): BlenderbotAttention(\n          (k_proj):\
          \ Linear(in_features=<span class=\"hljs-number\">1280</span>, out_features=<span\
          \ class=\"hljs-number\">1280</span>, bias=<span class=\"hljs-literal\">True</span>)\n\
          \          (v_proj): Linear(in_features=<span class=\"hljs-number\">1280</span>,\
          \ out_features=<span class=\"hljs-number\">1280</span>, bias=<span class=\"\
          hljs-literal\">True</span>)\n          (q_proj): Linear(in_features=<span\
          \ class=\"hljs-number\">1280</span>, out_features=<span class=\"hljs-number\"\
          >1280</span>, bias=<span class=\"hljs-literal\">True</span>)\n         \
          \ (out_proj): Linear(in_features=<span class=\"hljs-number\">1280</span>,\
          \ out_features=<span class=\"hljs-number\">1280</span>, bias=<span class=\"\
          hljs-literal\">True</span>)\n        )\n        (encoder_attn_layer_norm):\
          \ LayerNorm((<span class=\"hljs-number\">1280</span>,), eps=<span class=\"\
          hljs-number\">1e-05</span>, elementwise_affine=<span class=\"hljs-literal\"\
          >True</span>)\n        (fc1): Linear(in_features=<span class=\"hljs-number\"\
          >1280</span>, out_features=<span class=\"hljs-number\">5120</span>, bias=<span\
          \ class=\"hljs-literal\">True</span>)\n        (fc2): Linear(in_features=<span\
          \ class=\"hljs-number\">5120</span>, out_features=<span class=\"hljs-number\"\
          >1280</span>, bias=<span class=\"hljs-literal\">True</span>)\n        (final_layer_norm):\
          \ LayerNorm((<span class=\"hljs-number\">1280</span>,), eps=<span class=\"\
          hljs-number\">1e-05</span>, elementwise_affine=<span class=\"hljs-literal\"\
          >True</span>)\n      )\n    )\n    (layer_norm): LayerNorm((<span class=\"\
          hljs-number\">1280</span>,), eps=<span class=\"hljs-number\">1e-05</span>,\
          \ elementwise_affine=<span class=\"hljs-literal\">True</span>)\n  )\n)\n\
          </code></pre>\n"
        raw: "I encountered an issue when converting this model to ONNX with optimum\
          \ (see [here](https://huggingface.co/Xenova/blenderbot-400M-distill/tree/main/onnx)).\
          \ And prematurely made a PR after seeing the config for the 3B model (which\
          \ I did confuse it for). After opening the model in [netron](https://netron.app/),\
          \ it indicated 12 past key values for the encoder, which I misread as 12\
          \ layers. My bad - closing now!\n\n![image.png](https://cdn-uploads.huggingface.co/production/uploads/61b253b7ac5ecaae3d1efe0c/LW-KDY2CTeWTJFdGx1njq.png)\n\
          \n\nHowever, actually looking at the model in pytorch shows 2 layers:\n\
          ```py\nBlenderbotModel(\n  (shared): Embedding(8008, 1280, padding_idx=0)\n\
          \  (encoder): BlenderbotEncoder(\n    (embed_tokens): Embedding(8008, 1280,\
          \ padding_idx=0)\n    (embed_positions): BlenderbotLearnedPositionalEmbedding(128,\
          \ 1280)\n    (layers): ModuleList(\n      (0-1): 2 x BlenderbotEncoderLayer(\n\
          \        (self_attn): BlenderbotAttention(\n          (k_proj): Linear(in_features=1280,\
          \ out_features=1280, bias=True)\n          (v_proj): Linear(in_features=1280,\
          \ out_features=1280, bias=True)\n          (q_proj): Linear(in_features=1280,\
          \ out_features=1280, bias=True)\n          (out_proj): Linear(in_features=1280,\
          \ out_features=1280, bias=True)\n        )\n        (self_attn_layer_norm):\
          \ LayerNorm((1280,), eps=1e-05, elementwise_affine=True)\n        (activation_fn):\
          \ GELUActivation()\n        (fc1): Linear(in_features=1280, out_features=5120,\
          \ bias=True)\n        (fc2): Linear(in_features=5120, out_features=1280,\
          \ bias=True)\n        (final_layer_norm): LayerNorm((1280,), eps=1e-05,\
          \ elementwise_affine=True)\n      )\n    )\n    (layer_norm): LayerNorm((1280,),\
          \ eps=1e-05, elementwise_affine=True)\n  )\n  (decoder): BlenderbotDecoder(\n\
          \    (embed_tokens): Embedding(8008, 1280, padding_idx=0)\n    (embed_positions):\
          \ BlenderbotLearnedPositionalEmbedding(128, 1280)\n    (layers): ModuleList(\n\
          \      (0-11): 12 x BlenderbotDecoderLayer(\n        (self_attn): BlenderbotAttention(\n\
          \          (k_proj): Linear(in_features=1280, out_features=1280, bias=True)\n\
          \          (v_proj): Linear(in_features=1280, out_features=1280, bias=True)\n\
          \          (q_proj): Linear(in_features=1280, out_features=1280, bias=True)\n\
          \          (out_proj): Linear(in_features=1280, out_features=1280, bias=True)\n\
          \        )\n        (activation_fn): GELUActivation()\n        (self_attn_layer_norm):\
          \ LayerNorm((1280,), eps=1e-05, elementwise_affine=True)\n        (encoder_attn):\
          \ BlenderbotAttention(\n          (k_proj): Linear(in_features=1280, out_features=1280,\
          \ bias=True)\n          (v_proj): Linear(in_features=1280, out_features=1280,\
          \ bias=True)\n          (q_proj): Linear(in_features=1280, out_features=1280,\
          \ bias=True)\n          (out_proj): Linear(in_features=1280, out_features=1280,\
          \ bias=True)\n        )\n        (encoder_attn_layer_norm): LayerNorm((1280,),\
          \ eps=1e-05, elementwise_affine=True)\n        (fc1): Linear(in_features=1280,\
          \ out_features=5120, bias=True)\n        (fc2): Linear(in_features=5120,\
          \ out_features=1280, bias=True)\n        (final_layer_norm): LayerNorm((1280,),\
          \ eps=1e-05, elementwise_affine=True)\n      )\n    )\n    (layer_norm):\
          \ LayerNorm((1280,), eps=1e-05, elementwise_affine=True)\n  )\n)\n```\n\n"
        updatedAt: '2023-09-11T22:12:20.123Z'
      numEdits: 6
      reactions: []
    id: 64ff8d74dadb8c628f14183d
    type: comment
  author: Xenova
  content: "I encountered an issue when converting this model to ONNX with optimum\
    \ (see [here](https://huggingface.co/Xenova/blenderbot-400M-distill/tree/main/onnx)).\
    \ And prematurely made a PR after seeing the config for the 3B model (which I\
    \ did confuse it for). After opening the model in [netron](https://netron.app/),\
    \ it indicated 12 past key values for the encoder, which I misread as 12 layers.\
    \ My bad - closing now!\n\n![image.png](https://cdn-uploads.huggingface.co/production/uploads/61b253b7ac5ecaae3d1efe0c/LW-KDY2CTeWTJFdGx1njq.png)\n\
    \n\nHowever, actually looking at the model in pytorch shows 2 layers:\n```py\n\
    BlenderbotModel(\n  (shared): Embedding(8008, 1280, padding_idx=0)\n  (encoder):\
    \ BlenderbotEncoder(\n    (embed_tokens): Embedding(8008, 1280, padding_idx=0)\n\
    \    (embed_positions): BlenderbotLearnedPositionalEmbedding(128, 1280)\n    (layers):\
    \ ModuleList(\n      (0-1): 2 x BlenderbotEncoderLayer(\n        (self_attn):\
    \ BlenderbotAttention(\n          (k_proj): Linear(in_features=1280, out_features=1280,\
    \ bias=True)\n          (v_proj): Linear(in_features=1280, out_features=1280,\
    \ bias=True)\n          (q_proj): Linear(in_features=1280, out_features=1280,\
    \ bias=True)\n          (out_proj): Linear(in_features=1280, out_features=1280,\
    \ bias=True)\n        )\n        (self_attn_layer_norm): LayerNorm((1280,), eps=1e-05,\
    \ elementwise_affine=True)\n        (activation_fn): GELUActivation()\n      \
    \  (fc1): Linear(in_features=1280, out_features=5120, bias=True)\n        (fc2):\
    \ Linear(in_features=5120, out_features=1280, bias=True)\n        (final_layer_norm):\
    \ LayerNorm((1280,), eps=1e-05, elementwise_affine=True)\n      )\n    )\n   \
    \ (layer_norm): LayerNorm((1280,), eps=1e-05, elementwise_affine=True)\n  )\n\
    \  (decoder): BlenderbotDecoder(\n    (embed_tokens): Embedding(8008, 1280, padding_idx=0)\n\
    \    (embed_positions): BlenderbotLearnedPositionalEmbedding(128, 1280)\n    (layers):\
    \ ModuleList(\n      (0-11): 12 x BlenderbotDecoderLayer(\n        (self_attn):\
    \ BlenderbotAttention(\n          (k_proj): Linear(in_features=1280, out_features=1280,\
    \ bias=True)\n          (v_proj): Linear(in_features=1280, out_features=1280,\
    \ bias=True)\n          (q_proj): Linear(in_features=1280, out_features=1280,\
    \ bias=True)\n          (out_proj): Linear(in_features=1280, out_features=1280,\
    \ bias=True)\n        )\n        (activation_fn): GELUActivation()\n        (self_attn_layer_norm):\
    \ LayerNorm((1280,), eps=1e-05, elementwise_affine=True)\n        (encoder_attn):\
    \ BlenderbotAttention(\n          (k_proj): Linear(in_features=1280, out_features=1280,\
    \ bias=True)\n          (v_proj): Linear(in_features=1280, out_features=1280,\
    \ bias=True)\n          (q_proj): Linear(in_features=1280, out_features=1280,\
    \ bias=True)\n          (out_proj): Linear(in_features=1280, out_features=1280,\
    \ bias=True)\n        )\n        (encoder_attn_layer_norm): LayerNorm((1280,),\
    \ eps=1e-05, elementwise_affine=True)\n        (fc1): Linear(in_features=1280,\
    \ out_features=5120, bias=True)\n        (fc2): Linear(in_features=5120, out_features=1280,\
    \ bias=True)\n        (final_layer_norm): LayerNorm((1280,), eps=1e-05, elementwise_affine=True)\n\
    \      )\n    )\n    (layer_norm): LayerNorm((1280,), eps=1e-05, elementwise_affine=True)\n\
    \  )\n)\n```\n\n"
  created_at: 2023-09-11 20:58:12+00:00
  edited: true
  hidden: false
  id: 64ff8d74dadb8c628f14183d
  type: comment
- !!python/object:huggingface_hub.community.DiscussionStatusChange
  _event:
    author:
      avatarUrl: https://aeiljuispo.cloudimg.io/v7/https://cdn-uploads.huggingface.co/production/uploads/61b253b7ac5ecaae3d1efe0c/hwiQ0uvz3t-L5a-NtBIO6.png?w=200&h=200&f=face
…
