…
          to check the hub with a model_id defined as a <code>str</code>."<br>    770             f"{model}
          is not a valid model_id."<br>    771         )<br>    772     task = get_task(model,
          use_auth_token)<br>    774 # Retrieve the task</p>

          <p>RuntimeError: Inferring the task automatically requires to check the
          hub with a model_id defined as a <code>str</code>.RobertaForMaskedLM(<br>  (roberta):
          RobertaModel(<br>    (embeddings): RobertaEmbeddings(<br>      (word_embeddings):
          Embedding(50265, 1024, padding_idx=1)<br>      (position_embeddings): Embedding(514,
          1024, padding_idx=1)<br>      (token_type_embeddings): Embedding(1, 1024)<br>      (LayerNorm):
          LayerNorm((1024,), eps=1e-05, elementwise_affine=True)<br>      (dropout):
          Dropout(p=0.1, inplace=False)<br>    )<br>    (encoder): RobertaEncoder(<br>      (layer):
          ModuleList(<br>        (0-23): 24 x RobertaLayer(<br>          (attention):
          RobertaAttention(<br>            (self): RobertaSelfAttention(<br>              (query):
          Linear(in_features=1024, out_features=1024, bias=True)<br>              (key):
          Linear(in_features=1024, out_features=1024, bias=True)<br>              (value):
          Linear(in_features=1024, out_features=1024, bias=True)<br>              (dropout):
          Dropout(p=0.1, inplace=False)<br>            )<br>            (output):
          RobertaSelfOutput(<br>              (dense): Linear(in_features=1024, out_features=1024,
          bias=True)<br>              (LayerNorm): LayerNorm((1024,), eps=1e-05, elementwise_affine=True)<br>              (dropout):
          Dropout(p=0.1, inplace=False)<br>            )<br>          )<br>          (intermediate):
          RobertaIntermediate(<br>            (dense): Linear(in_features=1024, out_features=4096,
          bias=True)<br>            (intermediate_act_fn): GELUActivation()<br>          )<br>          (output):
          RobertaOutput(<br>            (dense): Linear(in_features=4096, out_features=1024,
          bias=True)<br>            (LayerNorm): LayerNorm((1024,), eps=1e-05, elementwise_affine=True)<br>            (dropout):
          Dropout(p=0.1, inplace=False)<br>          )<br>        )<br>      )<br>    )<br>  )<br>  (lm_head):
          RobertaLMHead(<br>    (dense): Linear(in_features=1024, out_features=1024,
          bias=True)<br>    (layer_norm): LayerNorm((1024,), eps=1e-05, elementwise_affine=True)<br>    (decoder):
          Linear(in_features=1024, out_features=50265, bias=True)<br>  )<br>) is not
          a valid model_id.</p>

          '
        raw: "Hello, I found this model to be very interesting. However, I am struggling\
          \ to make it run locally when leveraging huggingface pipelines. I'm probably\
          \ doing something wrong, but I feel like a hit a wall.\r\n\r\nHere is my\
…
          \ str):\r\n--> 768         raise RuntimeError(\r\n    769             \"\
          Inferring the task automatically requires to check the hub with a model_id\
          \ defined as a `str`.\"\r\n    770             f\"{model} is not a valid\
          \ model_id.\"\r\n    771         )\r\n    772     task = get_task(model,\
          \ use_auth_token)\r\n    774 # Retrieve the task\r\n\r\nRuntimeError: Inferring\
          \ the task automatically requires to check the hub with a model_id defined\
          \ as a `str`.RobertaForMaskedLM(\r\n  (roberta): RobertaModel(\r\n    (embeddings):\
          \ RobertaEmbeddings(\r\n      (word_embeddings): Embedding(50265, 1024,\
          \ padding_idx=1)\r\n      (position_embeddings): Embedding(514, 1024, padding_idx=1)\r\
          \n      (token_type_embeddings): Embedding(1, 1024)\r\n      (LayerNorm):\
          \ LayerNorm((1024,), eps=1e-05, elementwise_affine=True)\r\n      (dropout):\
          \ Dropout(p=0.1, inplace=False)\r\n    )\r\n    (encoder): RobertaEncoder(\r\
          \n      (layer): ModuleList(\r\n        (0-23): 24 x RobertaLayer(\r\n \
          \         (attention): RobertaAttention(\r\n            (self): RobertaSelfAttention(\r\
          \n              (query): Linear(in_features=1024, out_features=1024, bias=True)\r\
          \n              (key): Linear(in_features=1024, out_features=1024, bias=True)\r\
          \n              (value): Linear(in_features=1024, out_features=1024, bias=True)\r\
          \n              (dropout): Dropout(p=0.1, inplace=False)\r\n           \
          \ )\r\n            (output): RobertaSelfOutput(\r\n              (dense):\
          \ Linear(in_features=1024, out_features=1024, bias=True)\r\n           \
          \   (LayerNorm): LayerNorm((1024,), eps=1e-05, elementwise_affine=True)\r\
          \n              (dropout): Dropout(p=0.1, inplace=False)\r\n           \
          \ )\r\n          )\r\n          (intermediate): RobertaIntermediate(\r\n\
          \            (dense): Linear(in_features=1024, out_features=4096, bias=True)\r\
          \n            (intermediate_act_fn): GELUActivation()\r\n          )\r\n\
          \          (output): RobertaOutput(\r\n            (dense): Linear(in_features=4096,\
          \ out_features=1024, bias=True)\r\n            (LayerNorm): LayerNorm((1024,),\
          \ eps=1e-05, elementwise_affine=True)\r\n            (dropout): Dropout(p=0.1,\
          \ inplace=False)\r\n          )\r\n        )\r\n      )\r\n    )\r\n  )\r\
          \n  (lm_head): RobertaLMHead(\r\n    (dense): Linear(in_features=1024, out_features=1024,\
          \ bias=True)\r\n    (layer_norm): LayerNorm((1024,), eps=1e-05, elementwise_affine=True)\r\
          \n    (decoder): Linear(in_features=1024, out_features=50265, bias=True)\r\
          \n  )\r\n) is not a valid model_id."
        updatedAt: '2023-10-09T11:15:42.371Z'
      numEdits: 0
      reactions: []
    id: 6523e0de0b84de275c12bd71
    type: comment
  author: ntwm
  content: "Hello, I found this model to be very interesting. However, I am struggling\
    \ to make it run locally when leveraging huggingface pipelines. I'm probably doing\
…
    \ is not None:\r\n    767     if not isinstance(model, str):\r\n--> 768      \
    \   raise RuntimeError(\r\n    769             \"Inferring the task automatically\
    \ requires to check the hub with a model_id defined as a `str`.\"\r\n    770 \
    \            f\"{model} is not a valid model_id.\"\r\n    771         )\r\n  \
    \  772     task = get_task(model, use_auth_token)\r\n    774 # Retrieve the task\r\
    \n\r\nRuntimeError: Inferring the task automatically requires to check the hub\
    \ with a model_id defined as a `str`.RobertaForMaskedLM(\r\n  (roberta): RobertaModel(\r\
    \n    (embeddings): RobertaEmbeddings(\r\n      (word_embeddings): Embedding(50265,\
    \ 1024, padding_idx=1)\r\n      (position_embeddings): Embedding(514, 1024, padding_idx=1)\r\
    \n      (token_type_embeddings): Embedding(1, 1024)\r\n      (LayerNorm): LayerNorm((1024,),\
    \ eps=1e-05, elementwise_affine=True)\r\n      (dropout): Dropout(p=0.1, inplace=False)\r\
    \n    )\r\n    (encoder): RobertaEncoder(\r\n      (layer): ModuleList(\r\n  \
    \      (0-23): 24 x RobertaLayer(\r\n          (attention): RobertaAttention(\r\
    \n            (self): RobertaSelfAttention(\r\n              (query): Linear(in_features=1024,\
    \ out_features=1024, bias=True)\r\n              (key): Linear(in_features=1024,\
    \ out_features=1024, bias=True)\r\n              (value): Linear(in_features=1024,\
    \ out_features=1024, bias=True)\r\n              (dropout): Dropout(p=0.1, inplace=False)\r\
    \n            )\r\n            (output): RobertaSelfOutput(\r\n              (dense):\
    \ Linear(in_features=1024, out_features=1024, bias=True)\r\n              (LayerNorm):\
    \ LayerNorm((1024,), eps=1e-05, elementwise_affine=True)\r\n              (dropout):\
    \ Dropout(p=0.1, inplace=False)\r\n            )\r\n          )\r\n          (intermediate):\
    \ RobertaIntermediate(\r\n            (dense): Linear(in_features=1024, out_features=4096,\
    \ bias=True)\r\n            (intermediate_act_fn): GELUActivation()\r\n      \
    \    )\r\n          (output): RobertaOutput(\r\n            (dense): Linear(in_features=4096,\
    \ out_features=1024, bias=True)\r\n            (LayerNorm): LayerNorm((1024,),\
    \ eps=1e-05, elementwise_affine=True)\r\n            (dropout): Dropout(p=0.1,\
    \ inplace=False)\r\n          )\r\n        )\r\n      )\r\n    )\r\n  )\r\n  (lm_head):\
    \ RobertaLMHead(\r\n    (dense): Linear(in_features=1024, out_features=1024, bias=True)\r\
    \n    (layer_norm): LayerNorm((1024,), eps=1e-05, elementwise_affine=True)\r\n\
    \    (decoder): Linear(in_features=1024, out_features=50265, bias=True)\r\n  )\r\
    \n) is not a valid model_id."
  created_at: 2023-10-09 10:15:42+00:00
  edited: false
  hidden: false
  id: 6523e0de0b84de275c12bd71
  type: comment
- !!python/object:huggingface_hub.community.DiscussionComment
  _event:
    author:
      avatarUrl: /avatars/6a08074e7b05d933c65c5404b3ee3c2a.svg
      fullname: Prajwal Kailas
      isHf: false
…
