…
          , line 112, in _inner_fn<br>  File \"/Users/clustered/miniconda3/lib/python3.10/site-packages/huggingface_hub-0.14.1-py3.8.egg/huggingface_hub/utils/_validators.py\"\
          , line 166, in validate_repo_id<br>huggingface_hub.utils.<em>validators.HFValidationError:\
          \ Repo id must use alphanumeric chars or '-', '</em>', '.', '--' and '..'\
          \ are forbidden, '-' and '.' cannot start or end the name, max length is\
          \ 96: 'RWForCausalLM(<br>  (transformer): RWModel(<br>    (word_embeddings):\
          \ Embedding(65024, 4544)<br>    (h): ModuleList(<br>      (0-31): 32 x DecoderLayer(<br>\
          \        (input_layernorm): LayerNorm((4544,), eps=1e-05, elementwise_affine=True)<br>\
          \        (self_attention): Attention(<br>          (maybe_rotary): RotaryEmbedding()<br>\
          \          (query_key_value): Linear(in_features=4544, out_features=4672,\
          \ bias=False)<br>          (dense): Linear(in_features=4544, out_features=4544,\
          \ bias=False)<br>          (attention_dropout): Dropout(p=0.0, inplace=False)<br>\
          \        )<br>        (mlp): MLP(<br>          (dense_h_to_4h): Linear(in_features=4544,\
          \ out_features=18176, bias=False)<br>          (act): GELU(approximate='none')<br>\
          \          (dense_4h_to_h): Linear(in_features=18176, out_features=4544,\
          \ bias=False)<br>        )<br>      )<br>    )<br>    (ln_f): LayerNorm((4544,),\
          \ eps=1e-05, elementwise_affine=True)<br>  )<br>  (lm_head): Linear(in_features=4544,\
          \ out_features=65024, bias=False)</p>\n"
        raw: "Hello Thanks for your help all, I Get the below error now, can anyone\
          \ please help ?\n\nLoading checkpoint shards: 100%|\u2588\u2588\u2588\u2588\
          \u2588\u2588\u2588\u2588\u2588\u2588\u2588\u2588\u2588\u2588\u2588\u2588\
          \u2588\u2588\u2588\u2588\u2588\u2588\u2588\u2588\u2588\u2588\u2588\u2588\
…
          \ \"/Users/clustered/miniconda3/lib/python3.10/site-packages/huggingface_hub-0.14.1-py3.8.egg/huggingface_hub/utils/_validators.py\"\
          , line 112, in _inner_fn\n  File \"/Users/clustered/miniconda3/lib/python3.10/site-packages/huggingface_hub-0.14.1-py3.8.egg/huggingface_hub/utils/_validators.py\"\
          , line 166, in validate_repo_id\nhuggingface_hub.utils._validators.HFValidationError:\
          \ Repo id must use alphanumeric chars or '-', '_', '.', '--' and '..' are\
          \ forbidden, '-' and '.' cannot start or end the name, max length is 96:\
          \ 'RWForCausalLM(\n  (transformer): RWModel(\n    (word_embeddings): Embedding(65024,\
          \ 4544)\n    (h): ModuleList(\n      (0-31): 32 x DecoderLayer(\n      \
          \  (input_layernorm): LayerNorm((4544,), eps=1e-05, elementwise_affine=True)\n\
          \        (self_attention): Attention(\n          (maybe_rotary): RotaryEmbedding()\n\
          \          (query_key_value): Linear(in_features=4544, out_features=4672,\
          \ bias=False)\n          (dense): Linear(in_features=4544, out_features=4544,\
          \ bias=False)\n          (attention_dropout): Dropout(p=0.0, inplace=False)\n\
          \        )\n        (mlp): MLP(\n          (dense_h_to_4h): Linear(in_features=4544,\
          \ out_features=18176, bias=False)\n          (act): GELU(approximate='none')\n\
          \          (dense_4h_to_h): Linear(in_features=18176, out_features=4544,\
          \ bias=False)\n        )\n      )\n    )\n    (ln_f): LayerNorm((4544,),\
          \ eps=1e-05, elementwise_affine=True)\n  )\n  (lm_head): Linear(in_features=4544,\
          \ out_features=65024, bias=False)"
        updatedAt: '2023-06-04T14:19:21.076Z'
      numEdits: 0
      reactions: []
    id: 647c9d69c788767ab5cf3c32
    type: comment
  author: Sasanou
  content: "Hello Thanks for your help all, I Get the below error now, can anyone\
    \ please help ?\n\nLoading checkpoint shards: 100%|\u2588\u2588\u2588\u2588\u2588\
    \u2588\u2588\u2588\u2588\u2588\u2588\u2588\u2588\u2588\u2588\u2588\u2588\u2588\
…
