…
          \ 100%|\u2588\u2588\u2588\u2588\u2588\u2588\u2588\u2588\u2588\u2588\u2588\
          \u2588\u2588\u2588\u2588\u2588\u2588\u2588\u2588\u2588\u2588\u2588\u2588\
          \u2588\u2588\u2588\u2588\u2588\u2588\u2588\u2588\u2588\u2588\u2588\u2588\
          \u2588\u2588\u2588\u2588\u2588\u2588\u2588\u2588\u2588\u2588\u2588\u2588\
          \u2588\u2588\u2588\u2588\u2588\u2588\u2588\u2588\u2588\u2588\u2588\u2588\
          \u2588\u2588\u2588\u2588\u2588\u2588\u2588\u2588\u2588\u2588\u2588\u2588\
          \u2588| 2/2 [00:18&lt;00:00,  9.44s/it]\n\nIn [4]: model\nOut[4]: \nMidmLMHeadModel(\n\
          \  (transformer): MidmModel(\n    (wte): Embedding(72192, 4096)\n    (rotary_pos_emb):\
          \ RotaryEmbedding()\n    (drop): Dropout(p=0.0, inplace=False)\n    (h):\
          \ ModuleList(\n      (0-31): 32 x MidmBlock(\n        (ln_1): LayerNorm((4096,),\
          \ eps=1e-05, elementwise_affine=True)\n        (attn): MidmAttention(\n\
          \          (c_attn): Linear(in_features=4096, out_features=12288, bias=False)\n\
          \          (c_proj): Linear(in_features=4096, out_features=4096, bias=False)\n\
          \          (attn_dropout): Dropout(p=0.0, inplace=False)\n          (resid_dropout):\
          \ Dropout(p=0.0, inplace=False)\n        )\n        (ln_2): LayerNorm((4096,),\
          \ eps=1e-05, elementwise_affine=True)\n        (mlp): MidmMLP(\n       \
          \   (c_fc): Linear(in_features=4096, out_features=21760, bias=False)\n \
          \         (c_proj): Linear(in_features=10880, out_features=4096, bias=False)\n\
          \          (dropout): Dropout(p=0.0, inplace=False)\n        )\n      )\n\
          \    )\n    (ln_f): LayerNorm((4096,), eps=1e-05, elementwise_affine=True)\n\
          \  )\n  (lm_head): Linear(in_features=4096, out_features=72192, bias=False)\n\
          )\n\nIn [5]: model.save_pretrained('test')\n---------------------------------------------------------------------------\n\
          ValueError                                Traceback (most recent call last)\n\
          Cell In[5], line 1\n----&gt; 1 model.save_pretrained('test')\n\nFile ~/anaconda3/envs/career-chatbot-trainer-clm/lib/python3.10/site-packages/transformers/modeling_utils.py:2187,\
…
    \nDo you wish to run the custom code? [y/N] y\nLoading checkpoint shards: 100%|\u2588\
    \u2588\u2588\u2588\u2588\u2588\u2588\u2588\u2588\u2588\u2588\u2588\u2588\u2588\
    \u2588\u2588\u2588\u2588\u2588\u2588\u2588\u2588\u2588\u2588\u2588\u2588\u2588\
    \u2588\u2588\u2588\u2588\u2588\u2588\u2588\u2588\u2588\u2588\u2588\u2588\u2588\
    \u2588\u2588\u2588\u2588\u2588\u2588\u2588\u2588\u2588\u2588\u2588\u2588\u2588\
    \u2588\u2588\u2588\u2588\u2588\u2588\u2588\u2588\u2588\u2588\u2588\u2588\u2588\
    \u2588\u2588\u2588\u2588\u2588\u2588| 2/2 [00:18<00:00,  9.44s/it]\n\nIn [4]:\
    \ model\nOut[4]: \nMidmLMHeadModel(\n  (transformer): MidmModel(\n    (wte): Embedding(72192,\
    \ 4096)\n    (rotary_pos_emb): RotaryEmbedding()\n    (drop): Dropout(p=0.0, inplace=False)\n\
    \    (h): ModuleList(\n      (0-31): 32 x MidmBlock(\n        (ln_1): LayerNorm((4096,),\
    \ eps=1e-05, elementwise_affine=True)\n        (attn): MidmAttention(\n      \
    \    (c_attn): Linear(in_features=4096, out_features=12288, bias=False)\n    \
    \      (c_proj): Linear(in_features=4096, out_features=4096, bias=False)\n   \
    \       (attn_dropout): Dropout(p=0.0, inplace=False)\n          (resid_dropout):\
    \ Dropout(p=0.0, inplace=False)\n        )\n        (ln_2): LayerNorm((4096,),\
    \ eps=1e-05, elementwise_affine=True)\n        (mlp): MidmMLP(\n          (c_fc):\
    \ Linear(in_features=4096, out_features=21760, bias=False)\n          (c_proj):\
    \ Linear(in_features=10880, out_features=4096, bias=False)\n          (dropout):\
    \ Dropout(p=0.0, inplace=False)\n        )\n      )\n    )\n    (ln_f): LayerNorm((4096,),\
    \ eps=1e-05, elementwise_affine=True)\n  )\n  (lm_head): Linear(in_features=4096,\
    \ out_features=72192, bias=False)\n)\n\nIn [5]: model.save_pretrained('test')\n\
    ---------------------------------------------------------------------------\n\
    ValueError                                Traceback (most recent call last)\n\
    Cell In[5], line 1\n----> 1 model.save_pretrained('test')\n\nFile ~/anaconda3/envs/career-chatbot-trainer-clm/lib/python3.10/site-packages/transformers/modeling_utils.py:2187,\
…
